weights.pt (torch, 2525 bytes, 3 tensors)

hidden.weight f4 [4, 2]
11.453625 11.895437 11.2072735 -11.519961 9.207784 -8.924745 -10.789362 -10.8271
00000000: 0c42 3741 b653 3e41 fe50 3341 c351 38c1
00000010: 1553 1341 c1cb 0ec1 3aa1 2cc1 cd3b 2dc1

hidden.bias f4 [4]
-8.489899 -2.9184208 2.7093003 13.903362
00000000: a0d6 07c1 68c7 3ac0 2d65 2d40 2c74 5e41

output.weight f4 [1, 4]
20.640593 21.203848 -25.628284 21.646284
00000000: ef1f a541 7ba1 a941 ba06 cdc1 972b ad41
